tests/data/nnModel.ckpt (torch, 796695 bytes, 4 tensors)

fc1.weight f4 [250, 784]
00000000: 184f a23c c869 eebb 38da 8e3c 9e4f bd3c
00000010: 973c 0a3d 4edd ff3c 2051 513b 88ab a4bb
00000020: 2cd9 9bbc 303f 19bb 2854 453c 88d6 b3bb
00000030: 0f95 0cbc fa97 143d 9f6a 083d 0adc 0f3d
00000040: e1ea fabc 505c 95bc a013 bb3a e0d6 b4ba
00000050: 025a 8a3c 8e57 75bc a0b2 4d3b 1054 62bb
00000060: 38fe 09bc 2ee6 9a3c e01f 30bc 6353 86bc
00000070: b20d 9f3c 886a a9bb 80ba f839 2a0e b13c
00000080: ac54 7b3d 0498 fcba 9dfd c33c fcf7 4c3d
00000090: 8234 753d c124 593d 7859 353d 686f 483d
000000a0: 63d1 973d b1ed aabc 2cc8 1ebd 998c 103e
000000b0: 4cdb cf3d 6967 cb3d 3dd7 753d 57cf 843d
000000c0: a919 1d3d 0b24 c439 0ee0 0f3d 5f2c 123c
000000d0: 6e64 01bd 2426 043c 3300 bcbc 9c43 63bc
000000e0: 20de b63c b006 853b 6d79 c23c 15af 0c3d
000000f0: f2ef 313c c9ab 593d 3781 893d 4e4f ac3d
00000100: 7cde cf3d f0b4 223e d0c5 263e 442d 5e3e
00000110: d3ea 4a3e b88e d43d 844f 263e c836 2a3e
00000120: 43ab c73d 95ad c93d 8d7e 413d 3f9a eb3d
00000130: 5bb0 6f3d b61e d33d 1a71 853d 2924 2d3d
00000140: 685e 043d 41b3 803d da80 cfbc e04b e13b
00000150: 51fc 093d 20bc c5ba 45ae f33c d577 733d
00000160: f966 953d 195f 0a3d 6d28 e23d 0cec ee3d
00000170: 022a 453e 3ad5 ed3d 4c37 9a3d f834 883d
00000180: 3f1e da3d 48da b43d f28c 6dbc 7c58 a63d
00000190: f55b 453d 9ba4 51bc 938d 883d fe33 423d
000001a0: 0887 943c 7852 1cbd 7c1f 45bc 6947 573d
000001b0: 85e6 0c3c dcf3 fe3c 4c05 1fbd c0b4 2d3a
000001c0: c0d4 f8bb 253d 193c 803c 783d d9d1 a63d
000001d0: 722b ea3d 1dbb 103e e2d0 783d 7883 973d
000001e0: ba9f cc3d 8265 273d 13ee cb3d ca0c dd3d
000001f0: d969 903d 3e87 c93c 9f3b 1d3d bd1e 063d
00000200: ef53 163d 24a6 253c 22a5 053d a7b8 4f3d
00000210: a6d9 06bc 02fd c0bc 41c6 92bc af80 d0bd
00000220: 1243 9fbd d138 e3bc ae7a e83c 85c2 193d
00000230: 9410 643c 2e2b d8bc 1a84 c73d 535c a53d
00000240: 2ab8 153e 901d 283e 3e95 ce3d 7763 1e3d
00000250: ee4c 9e3c f54a 543c 6b45 40bc 8f81 ad39
00000260: 4cff 3c3d d137 fd3c 7413 093d 82ab 8e3d
00000270: a9df 5c3d 7ef2 02bd a768 993c 38d6 a9bc
00000280: 01f4 ce3c 6a2d eebc 125d b4ba e93f 77bd
00000290: e797 b93c 5184 babc dadc 913d 512f 3e3c
000002a0: 9413 d2bb f78f 393d c1e1 eb3b 4647 0d3e
000002b0: 9b43 e83d 8c2c d63c f50d 613c a2ec 133c
000002c0: dae4 e03c 151e a53d 9f63 8b3d 0232 ab3d
000002d0: 23b5 bc3d 09bb 923d fcc4 1d3d f4e6 d73c
000002e0: 5622 95ba a7a5 323c 618c b6bc 0ac8 79bd
000002f0: 8790 fbbd ebde 46bd a5fb b0bc c9a4 adbd
00000300: 4acb c6bc 2b7c a1bb 1cba 86bc 1e79 d63c
00000310: 88f0 d4b9 ffb9 d83d 57dd 26bd 2592 963d
00000320: f249 3a3e 4599 6abd 48f3 f73b 674f 773d
00000330: 2504 803d 91cd 653d 70be 713d f372 9e3d
00000340: 3f39 d93d c395 9c3d 8d36 f53c 242a 053b
00000350: 573b 50bd 3cb6 07be ec9d d3bd 478b cbbd
00000360: d4fd a1bd e28a 85bd d8c4 4bbd 4cda dabd
00000370: 23b9 2ebe 0e56 07be f0c1 abbd 1e30 0c3d
00000380: c787 5cbc 322a 713d 3d44 c0bd 87d2 53bb
00000390: 7470 d43d 1e43 813b f874 d13b 7175 0e3d
000003a0: cd8f 2c3c 9c74 d23b 1e95 f13c 2844 c83c
000003b0: 453d 89bc d191 0b3d 584f 5dbc d900 85bc
000003c0: b296 2fbd 504c b7bd 931c cfbc e71c cc3c
000003d0: d41d 7bbd 9101 40bc cceb a73d 78ef 94bd
000003e0: adc9 59be 6c90 2bbe b5c8 b33b 5f0d 0fbc
000003f0: 3fe2 df37 ac79 c13d e484 65bd 0bd6 7f3d
0.019813105 -0.0072757937 0.01743804 0.023109253 0.03374919 0.031233456 0.0031939223 -0.005025331
-0.019024454 -0.002338361 0.01204399 -0.0054882206 -0.00858046 0.03627775 0.033304807 0.035121955
-0.030629577 -0.018232495 0.0014272816 -0.0013796948 0.016888622 -0.014974488 0.0031386986 -0.0034534968
-0.008422427 0.018908586 -0.010749787 -0.016397184 0.01941571 -0.00517017 0.000474412 0.0216132
0.061360046 -0.0019271378 0.023924643 0.050041184 0.05986453 0.053013567 0.044274777 0.04893437
0.07412984 -0.020865293 -0.038765118 0.14116134 0.101492494 0.09931833 0.06001972 0.064848594
0.03835455 0.00037410887 0.035125785 0.008921712 -0.031589918 0.008065734 -0.022949314 -0.0138711
0.022322714 0.004059635 0.023739541 0.03434666 0.01086043 0.053142343 0.06714099 0.08413564
0.101498574 0.15889335 0.16286397 0.21696955 0.19816141 0.10378784 0.1624127 0.1662246
0.097494625 0.09847561 0.04723983 0.115040295 0.058517795 0.10308592 0.06515713 0.042270813
0.032316595 0.0628419 -0.025329996 0.0068755 0.033687893 -0.0015085973 0.029746184 0.059440453
0.07295031 0.0337821 0.11042867 0.11666116 0.19254306 0.11612935 0.07530078 0.06650728
0.106503 0.08830696 -0.014498936 0.08122346 0.0481834 -0.012795593 0.06667628 0.047412865
0.018130794 -0.038164586 -0.012031432 0.052558336 0.008599882 0.03112214 -0.03882341 0.000662636
-0.007593721 0.009352957 0.060604572 0.08145494 0.11434068 0.14133878 0.06074608 0.073981225
0.09991403 0.04086829 0.099575184 0.10793455 0.07051439 0.024600621 0.038386937 0.032744158
0.03670114 0.010110412 0.032628186 0.050713208 -0.008230602 -0.023558144 -0.0179168 -0.101807944
-0.077764645 -0.027737053 0.02837881 0.037539024 0.013919968 -0.026387777 0.09741993 0.0807425
0.14621034 0.16417527 0.100870594 0.038669076 0.019323792 0.012957324 -0.0117353005 0.0003309366
0.046141908 0.030910404 0.033465818 0.06966306 0.053924236 -0.03196954 0.01872666 -0.02073203
0.025262835 -0.02907439 -0.0013760647 -0.060363684 0.02265544 -0.022768172 0.07122202 0.011607961
-0.0064110253 0.04530331 0.007198543 0.1379672 0.1134102 0.026144288 0.013736238 0.009028586
0.027452875 0.08062378 0.068061106 0.083591476 0.092142366 0.071645804 0.038517937 0.026355244
-0.0011378031 0.010903752 -0.022283735 -0.060981788 -0.12283426 -0.048552435 -0.021604368 -0.08478696
-0.024266858 -0.004928132 -0.016446166 0.0261808 -0.00040615 0.10582351 -0.04073843 0.073520936
0.1819227 -0.057275075 0.007566843 0.06037846 0.062507905 0.056104247 0.059019506 0.077367686
0.10606622 0.07645752 0.029933238 0.0020319307 -0.05083784 -0.1325311 -0.103328556 -0.099386744
-0.07909742 -0.065206304 -0.04974827 -0.10686168 -0.17062812 -0.13216421 -0.083866 0.034225576
-0.013460106 0.05887813 -0.093880154 -0.003232153 0.10373011 0.0039447686 0.0063921176 0.03477997
0.010532332 0.0064225923 0.02949005 0.024446562 -0.016752848 0.03407461 -0.013507687 -0.016235756
-0.042868324 -0.08950102 -0.02528218 0.024916125 -0.061307743 -0.011719123 0.081992716 -0.072722375
-0.2126834 -0.16754311 0.0054865726 -0.008731215 2.6689026e-05 0.09447035 -0.056034938 0.062459987

fc1.bias f4 [250]
00000000: 6e26 393d ecef 9abc 1ba0 b5bd a2de a73d
00000010: 31a5 763d 4a1c 2ebd 31c7 133d 32e4 ac39
00000020: 322f 8e3d 6b8a aa3a 595a fd3c 1657 b93d
00000030: dfdb 303d 6d7b 69bd da7c ad3d 8bb7 603d
00000040: e455 efbc 1367 3ebd 4854 243c cd78 37bc
00000050: d5e1 b83c 253a 033e 87cf 203d c0b2 4dbd
00000060: a64c 093d b67c 0e3d 9909 293c 19b6 ca3c
00000070: 233e 043e 52c8 ccbc 55b8 80bd dbf7 d63c
00000080: 31a2 d13d 18f8 3fbd ee08 9a3c d2a0 89bc
00000090: 20a4 103b ccd8 593d 042b 833a f98e 763d
000000a0: 8597 4dbd f4b8 e53d 0d0a 5f3d cb9c 9abc
000000b0: 71ca 4fbd e6cb ed3c b9a4 29bd b2ab 1cbd
000000c0: 7cc5 843d 01fa 0bbd 8818 853d 39d1 2c3d
000000d0: 4ed4 4fbd b97f 66bc 56af 32bd a32e 22bc
000000e0: 3b07 283d afaa 143b 31e1 613d eecd 7a3d
000000f0: 749a 1c3c ff7d 533b 6129 38bd cd9c a43d
00000100: cb92 803c 42a3 f03c acb4 83bc b2cc debc
00000110: f6f1 5f3d 9b23 163c b09e 453e d9ed e13d
00000120: f346 713c 4739 9b3d 2a2d 123e cb13 8dbb
00000130: c89f cf3c c5c0 b5bc 0618 b43c d858 e0bc
00000140: fef6 0c3d 20bb daba c346 1f3d 1427 0c3d
00000150: 6530 34bd 3e2f 03bd 0478 a83d 19ec da3a
00000160: 6a85 c9bc 2f26 4e3d 51ab 3a3d eec7 993d
00000170: 479f ce3d c4b7 f03d 88c3 a9bc 82e6 183d
00000180: 99ea 813d b8e9 d63c c1bb 64bd 721a 123d
00000190: 5805 d43d 4018 4c3d 195c d7bd 3b10 3ebd
000001a0: 2822 343e 56bf df3d 303d 593d 8646 d7bb
000001b0: e9bf 163d 3b81 b23d 115b 153d 0a0b 1c3c
000001c0: 43d7 933d fbb8 ab3d f33d 0e3a 3f40 673d
000001d0: 46db b1bc 3b28 023d 9405 4fbd 79fc 863d
000001e0: 6064 7abd b1b0 633c 8a1e 123d 7b64 953c
000001f0: 2b15 cd3b 4107 b73d 0ad9 9d3d 294a 4d3d
00000200: ac9c 2f3c 89e8 173d 65fe f33b bd55 653d
00000210: 34e1 023e 6b36 d83d d71a 4ebd bc12 43bc
00000220: e552 303d 1083 803c 7534 97bc 47a2 dc3d
00000230: 01ab 6d3d 82be c13d 1cab 8ebb 56a5 7b3d
00000240: 3177 9f3c 1a7c e63d acf0 2dbd c78d f33c
00000250: c25a a4bd c76f 5d3d be8a 4fbd b84d ae3c
00000260: 2e60 b43c b87e 553d d131 a63c a042 14bd
00000270: f612 65bd 3236 183e 42aa dabc 0b2c d6ba
00000280: a849 a1bc 4068 31bc 8b4c 40bb a847 9a3d
00000290: 333e 773d c0d0 b63b d198 ac3d a4d4 ab3d
000002a0: 643d 823d 0b3a 893d 69bd 7bbd 5548 0dbd
000002b0: 818e 163d 3b04 413d e8ab 003c 2630 8bbc
000002c0: 63b1 b73b 4a6e a63d 69d6 323d f08a 2d3d
000002d0: 0ae2 a93b 8b4d c63d 0efe 3c3c 81ac 59bd
000002e0: 4db3 ab3d ec30 8b3d 9393 093d 3e82 d53c
000002f0: a1ba 723d 4d23 8d3c 2986 fd3c 79fe 853d
00000300: da04 49bc a797 cc3d 2cf2 cfbb a44a 5f3d
00000310: ebec da3d 6360 273e 22db 743c f969 553c
00000320: df68 59bd 1138 be3d 3950 72bd a5a9 1f3d
00000330: 4b6c 9b3c c463 04bd 9521 1e3e 83ac e43b
00000340: c3a7 943d f8aa 3d3d 8eea 193d 6fb6 9e3d
00000350: 3684 a8bc 765c 373d 6ee8 ec3c 114f 0fbd
00000360: ac6a 883d fa02 c0bc daf8 be3c bc14 283d
00000370: cbfb 93bd 37f4 09bd e037 d1b9 61e8 13bc
00000380: 15ac fd3d 7c5e 683d 6c9a 42bd 943e 91bc
00000390: 31d7 c5bc 074f 1b3e aefc a5ba 04f6 b43c
000003a0: b2d9 3cbd d35c 84bd 9f75 263d 21da a93d
000003b0: 868c fa3d 0736 503d 3284 1c3c 7dfc 64bd
000003c0: 592a 983d 2a5f 903d 9ff6 9c3d c817 673d
000003d0: ff6d 843d c817 f3bd 3943 6d3c 0015 3eb8
000003e0: 22e2 38bd 125e 793d
0.045202665 -0.018913232 -0.08868428 0.08196761 0.060216133 -0.042507447 0.036078636 0.00032976415
0.069425955 0.0013011222 0.03092687 0.090498134 0.043178435 -0.057002474 0.08471079 0.05486254
-0.02921576 -0.046485018 0.01002986 -0.011198235 0.022568623 0.12815149 0.039260413 -0.050219297
0.033520363 0.034786902 0.01031723 0.024745034 0.12914328 -0.024997864 -0.062851585 0.026241234
0.10236014 -0.04686746 0.018803086 -0.016800318 0.0022070482 0.05318527 0.0010007326 0.060194943
-0.05019333 0.11216918 0.054452945 -0.018873593 -0.050730173 0.02902789 -0.041416857 -0.03824968
0.0648298 -0.03417397 0.064988196 0.042191718 -0.05073958 -0.014068537 -0.043624245 -0.009898814
0.04102252 0.0022684743 0.0551464 0.061231546 0.009558309 0.0032271144 -0.044961337 0.0803772
0.015694996 0.029374722 -0.016077362 -0.027197216 0.05467411 0.009163762 0.19298816 0.11031694
0.014726388 0.07579284 0.14275041 -0.004305338 0.025344744 -0.022186646 0.021984112 -0.027386114
0.034415238 -0.0016687848 0.038885843 0.034216955 -0.043991465 -0.032027476 0.08226016 0.0016702443
-0.02459975 0.050329383 0.045573536 0.07508837 0.100889735 0.117538005 -0.02072312 0.037329204
0.06343574 0.026234493 -0.05584312 0.03566975 0.10352582 0.049827814 -0.10515613 -0.046402197
0.17591155 0.10925166 0.05303687 -0.0065696863 0.036804114 0.08716055 0.0364638 0.009524116
0.07218792 0.083848916 0.0005426101 0.056457754 -0.021711003 0.031776648 -0.05054243 0.06591124
-0.06113088 0.013897107 0.035673656 0.01823639 0.006258627 0.089369304 0.077074125 0.050119553
0.010718506 0.037086997 0.0074460977 0.05598997 0.1278122 0.105572544 -0.050318565 -0.011906322
0.043047804 0.015687495 -0.01845763 0.107731394 0.05802441 0.094601646 -0.004353894 0.061436974
0.019466015 0.11254139 -0.04246585 0.02973069 -0.08025123 0.054061677 -0.050669424 0.021277294
0.022018518 0.0521228 0.020287426 -0.03619635 -0.055926286 0.14864424 -0.026692513 -0.001634003
-0.019688442 -0.010828078 -0.0029342498 0.075331986 0.060362052 0.005579084 0.08427585 0.08390167
0.063593656 0.06700524 -0.061459932 -0.03449281 0.036756996 0.047123175 0.007853486 -0.016990732
0.005605863 0.08126505 0.04366151 0.04236883 0.0051844167 0.09682759 0.011535181 -0.05314303
0.08383808 0.067964405 0.033588003 0.02606308 0.059260014 0.017228747 0.030947762 0.065426774
-0.012269223 0.09989863 -0.006346008 0.054514542 0.1068972 0.16345362 0.014944823 0.013025754
-0.05307853 0.092880376 -0.059158538 0.038980145 0.018972537 -0.032321706 0.15442498 0.006978573
0.072585605 0.046305627 0.037577204 0.0774964 -0.020570856 0.044765912 0.028919425 -0.034987513
0.06660971 -0.02343892 0.023312021 0.0410354 -0.0722576 -0.033680167 -0.00039905217 -0.009027571
0.12386338 0.056730732 -0.04751055 -0.017730035 -0.024150463 0.15166865 -0.0012663805 0.022089966
-0.046106048 -0.06463017 0.040639516 0.08293558 0.12233834 0.050832774 0.009553002 -0.055904854
0.07429952 0.07049401 0.07664227 0.056419164 0.064662926 -0.1186977 0.014481359 -4.5319088e-05
-0.045137532 0.060880728

fc2.weight f4 [10, 250]
00000000: cc22 54be d6d9 923d d0fc 153e d47c acbc
00000010: a383 b93c afdc a83b 9115 37be 3b9f 3cbe
00000020: e71f 2fbe 2dba f73d 57dc b8bd 5fad fabd
00000030: 65db 06be 1888 b63c bf03 ac3d a8bb a93d
00000040: 0a96 f0bd 6aa5 163a 0acd 79be b12f 163e
00000050: 46de 51bc aff8 b4bd 543a 083e 67ca a83d
00000060: f595 a3be 3703 d8bd 5825 babd 124d e5bb
00000070: 2966 bbbe 8475 66bd 5931 5ebd 3633 6dbe
00000080: 02c1 f0bd 4dc8 293d 558e f6bd 6340 dd3c
00000090: 6b89 f23d 0f34 4ebc 5037 c4be cdc1 0fbe
000000a0: 490c d3bb 42c2 d0bc cebb 3bbc ee11 793b
000000b0: caf0 e83d 14e1 16be 2d03 2a3d 4a36 01bd
000000c0: d3b0 913d 3912 b1be 758e 37be 54b4 10bd
000000d0: e822 a73d 1113 0b3e fd09 cd3d 1a14 02bd
000000e0: 58dd fb3d 65c2 3d3d 9406 d2bd d00e 3abc
000000f0: 5a71 3fbe 9519 44be 4479 cc3d 68a8 f63d
00000100: 6456 0cbd 8fb1 5c3d cc26 653a 2304 b5bd
00000110: d963 083d 425d f8bc ff3e 433b 7a4e 86be
00000120: 4a16 9a3d 6600 0cbe b2e2 6dbd b564 83bd
00000130: fc32 923d 5e1c afbc 5e9a 463c acf1 86bd
00000140: e57b c53c b9c9 283d 4238 6bbb 6c61 28bd
00000150: c37d ae3d 852a 8a3d af15 813d b2d7 353d
00000160: bf8e 973d 0301 d73b 449c 753d 3e86 a43c
00000170: 5936 ebbd 94fe 88bd 4c78 b7be 813e 7bbe
00000180: c60c 49be b784 d2bd 1cbf 0c3d 2202 8dbc
00000190: f932 b7be 5352 c23d 4668 993c f933 9b3d
000001a0: 504e 5e3c 6825 80bd 56e2 43bd 723b 313d
000001b0: 9424 acbd a9e2 d73d 2452 e73c 16f8 a9be
000001c0: e665 063d 00e7 85be 21ca 6abe 7632 703e
000001d0: 1de2 443d 782b b53d b193 ae3c 13f7 b3bc
000001e0: 8720 7b3d 2456 80be 4b25 3ebb 991b a33d
000001f0: 31b6 22be 83d7 663d 56c0 703d 5f2d 67be
00000200: 82c2 7f3d 27f1 163e f48e e03d 7514 13be
00000210: 1929 0f3e d4c0 0f3d 8d50 ee3d 66ab 15bd
00000220: f466 5ebe 52ab e73d bc42 dd3d d7c5 cd3d
00000230: 7193 843d af79 1abe 5951 bd3b 8f65 aebd
00000240: bca1 703d 4f4c a3be 7945 d43d 0107 98bd
00000250: 9c3d d03d d592 9b3d fd58 b93d d008 cebc
00000260: 30f0 a8bd f6e0 dc3c f343 22be 1219 bbbc
00000270: ec5f d73d fb53 ddbd 8bcf 17bc dfbf 273e
00000280: 457c d73c 9cef 9e3d 3af6 f03c ec5e 963d
00000290: 2289 fdbd 8db5 d0bd 6b27 7ebe d236 3a3d
000002a0: 9d0f f2bd dbb0 e2bc 45eb 103e 6c1d 923d
000002b0: ba1c 1abe ca1e 56be 75d8 7c3d e4ac 0a3e
000002c0: 7c9b eebc a20c 83be c047 1a3e 3483 f63d
000002d0: e1e2 973d de21 bc3d 6914 9b3b e4a7 283d
000002e0: d6ef 9ebd 852d d1be 2a3f 7b3d 26ff 22be
000002f0: e442 513e 1718 4fbe 1708 103c 6bef 1abe
00000300: e9e2 773d 3e77 0a3c df54 c3be 513e 6abe
00000310: 3cc2 f5be 5f9d 5a3d 1fa7 bbbd e920 da3b
00000320: e86d 2bbd 02ee 7b3d 852a 39be 9b99 3e3e
00000330: ed3b b2be b5a4 8abd 7672 ba3c 0626 59be
00000340: 1010 893d 3357 723d 0d63 56be 0b21 9e3d
00000350: ea5e a33d 1efb 02be 41ef a9bd 84ec 983d
00000360: 3536 ec3c f7eb 9e3c e6d9 b4be 241a 293d
00000370: 3a4c 503c 3ca7 9b3d 058f 41be f13e a0bc
00000380: a176 e9be 1566 4b3d 4747 88bd ec76 e33d
00000390: 1032 38bd 9dbd b23d edbe 56be b762 153e
000003a0: fa2c b3bd c93f efbd 0839 33be 434d 313d
000003b0: 99c3 b4bc d861 413d b474 13be f82f 07be
000003c0: d994 833d 461a f23c 1866 d9be a03d 6cbd
000003d0: b475 b5be 3590 f63d 6611 0fbe d565 bf3d
000003e0: af67 013d d2b4 0bbd 3dbd c03d 8cc7 433d
000003f0: ce63 abbc 80c7 ac3d 12f6 cabe df2e 183e
-0.20716399 0.07170455 0.14647222 -0.021055616 0.022645777 0.0051532607 -0.1787932 -0.18420117
-0.17102014 0.12096057 -0.090264015 -0.12240099 -0.1316963 0.022281691 0.08399152 0.08287746
-0.11747368 0.00057466945 -0.24394622 0.1466663 -0.012809342 -0.08836495 0.133035 0.0824173
-0.31950346 -0.10547488 -0.09089154 -0.006997713 -0.3660138 -0.056264415 -0.05424628 -0.23164067
-0.11755563 0.041450787 -0.120388664 0.027008241 0.11842617 -0.012585654 -0.3832345 -0.14038773
-0.0064406735 -0.025483254 -0.01145835 0.0038005072 0.11374052 -0.14734298 0.041506935 -0.031545915
0.07113805 -0.34584215 -0.17925437 -0.035328224 0.08160955 0.13581492 0.10011671 -0.03175745
0.12298077 0.046327967 -0.10255161 -0.011356071 -0.18695584 -0.19150384 0.09984067 0.1204384
-0.034262076 0.05388027 0.0008741438 -0.0883868 0.033298347 -0.030317906 0.0029792187 -0.26231748
0.075237826 -0.13672027 -0.05807752 -0.06415693 0.07138631 -0.021375831 0.012121765 -0.06589064
0.02410693 0.041208003 -0.0035891687 -0.041108534 0.08520081 0.06746391 0.06302964 0.044395156
0.074002735 0.0065614 0.05996348 0.020083543 -0.11484975 -0.06689182 -0.35833967 -0.24535562
-0.19633779 -0.102792196 0.034361944 -0.017212931 -0.35781077 0.09488358 0.01872648 0.07578272
0.013568476 -0.06257135 -0.047823273 0.043269582 -0.08405414 0.10541279 0.02823741 -0.33197087
0.03281202 -0.26152802 -0.22928669 0.2345675 0.0480672 0.08846182 0.02131066 -0.0219684
0.061310317 -0.2506572 -0.0029013928 0.07964248 -0.15889813 0.05635787 0.058777176 -0.22575901
0.062441356 0.1474043 0.10964766 -0.14363272 0.13980521 0.035096005 0.116364576 -0.03654041
-0.21718961 0.11311974 0.10803744 0.100475006 0.06473435 -0.15085481 0.0057775197 -0.085154645
0.058747992 -0.31894156 0.10364813 -0.07423211 0.10168001 0.07596365 0.09050176 -0.025150687
-0.08248937 0.026962738 -0.15846233 -0.022839103 0.105163425 -0.10807034 -0.009265791 0.16381787
0.026304374 0.077605456 0.029414285 0.07342324 -0.12379672 -0.10190878 -0.24819724 0.045462437
-0.11819384 -0.027672222 0.14152248 0.07134518 -0.15050021 -0.20910183 0.061729867 0.13542515
-0.029126875 -0.25595576 0.15066433 0.12036744 0.074163206 0.09186147 0.0047326577 0.041175738
-0.07760589 -0.4085504 0.061339535 -0.15917644 0.20435673 -0.20224033 0.008790991 -0.15130393
0.060519133 0.008451281 -0.3815069 -0.22875334 -0.47999752 0.053372737 -0.09162735 0.006656755
-0.04185286 0.06150628 -0.18082626 0.18613283 -0.34811345 -0.067696966 0.022759657 -0.21205911
0.06692517 0.05916519 -0.20936222 0.07721146 0.07977088 -0.12791106 -0.08297587 0.07466987
0.028834442 0.019399626 -0.35322493 0.041284695 0.012713486 0.07600257 -0.18902214 -0.019561263
-0.4559832 0.0496579 -0.0665422 0.11106667 -0.04496962 0.08727572 -0.2097127 0.14588438
-0.08748813 -0.11682088 -0.17502224 0.043286573 -0.022065924 0.04721245 -0.14399987 -0.13201892
0.06424875 0.029553544 -0.42460704 -0.057675958 -0.35441363 0.12039224 -0.1397148 0.09345595
0.03159302 -0.03410799 0.09411094 0.047797725 -0.020921614 0.08436489 -0.39640862 0.1486163

fc2.bias f4 [10]
00000000: 2b75 91bc 27ac 2fbd ffc7 b13c 804c 80bd
00000010: 3437 ce3c 6a40 b93d bf12 6d3c 94e8 27bd
00000020: 42a6 57bd 7c21 9dbd
-0.017756065 -0.042888787 0.02170181 -0.06264591 0.025172807 0.09045489 0.014469801 -0.04099329
-0.05264879 -0.07672402
